Model: DeepSpeedEngine(
  (module): PeftModelForCausalLM(
    (base_model): LoraModel(
      (model): MistralForCausalLM(
        (model): MistralModel(
          (embed_tokens): Embedding(32000, 4096)
          (layers): ModuleList(
            (0-13): 14 x MistralDecoderLayer(
              (self_attn): MistralAttention(
                (q_proj): lora.Linear(
                  (base_layer): Linear(in_features=4096, out_features=4096, bias=False)
                  (lora_dropout): ModuleDict(
                    (default): Dropout(p=0, inplace=False)
                  )
                  (lora_A): ModuleDict(
                    (default): Linear(in_features=4096, out_features=8, bias=False)
                  )
                  (lora_B): ModuleDict(
                    (default): Linear(in_features=8, out_features=4096, bias=False)
                  )
                  (lora_embedding_A): ParameterDict()
                  (lora_embedding_B): ParameterDict()
                  (lora_magnitude_vector): ModuleDict()
                )
                (k_proj): Linear(in_features=4096, out_features=1024, bias=False)
                (v_proj): lora.Linear(
                  (base_layer): Linear(in_features=4096, out_features=1024, bias=False)
                  (lora_dropout): ModuleDict(
                    (default): Dropout(p=0, inplace=False)
                  )
                  (lora_A): ModuleDict(
                    (default): Linear(in_features=4096, out_features=8, bias=False)
                  )
                  (lora_B): ModuleDict(
                    (default): Linear(in_features=8, out_features=1024, bias=False)
                  )
                  (lora_embedding_A): ParameterDict()
                  (lora_embedding_B): ParameterDict()
                  (lora_magnitude_vector): ModuleDict()
                )
                (o_proj): Linear(in_features=4096, out_features=4096, bias=False)
              )
              (mlp): MistralMLP(
                (gate_proj): Linear(in_features=4096, out_features=14336, bias=False)
                (up_proj): Linear(in_features=4096, out_features=14336, bias=False)
                (down_proj): Linear(in_features=14336, out_features=4096, bias=False)
                (act_fn): SiLU()
              )
              (input_layernorm): MistralRMSNorm((0,), eps=1e-05)
              (post_attention_layernorm): MistralRMSNorm((0,), eps=1e-05)
            )
          )
          (norm): MistralRMSNorm((0,), eps=1e-05)
          (rotary_emb): MistralRotaryEmbedding()
        )
        (lm_head): Linear(in_features=4096, out_features=32000, bias=False)
      )
    )
  )
)
Inputs: {'chosen_input_ids': [1, 733, 16289, 28793, 2087, 18741, 4060, 13, 1976, 460, 396, 13892, 28723, 28705, 13, 12069, 5407, 369, 574, 14915, 622, 4052, 291, 316, 272, 8847, 297, 4735, 28723, 28705, 13, 3381, 368, 949, 28742, 28707, 873, 272, 4372, 28725, 776, 4098, 741, 1341, 1871, 28723, 13, 28789, 700, 18741, 4060, 13, 20
…
